_________________________________________________________________
Layer (type)                 Output Shape              Param #   
=================================================================
dense_1 (Dense)              (None, 30)                90        
_________________________________________________________________
leaky_re_lu_1 (LeakyReLU)    (None, 30)                0         
_________________________________________________________________
dense_2 (Dense)              (None, 30)                930       
_________________________________________________________________
leaky_re_lu_2 (LeakyReLU)    (None, 30)                0         
_________________________________________________________________
dense_3 (Dense)              (None, 30)                930       
_________________________________________________________________
leaky_re_lu_3 (LeakyReLU)    (None, 30)                0         
_________________________________________________________________
dense_4 (Dense)              (None, 3)                 93        
_________________________________________________________________
activation_1 (Activation)    (None, 3)                 0         
=================================================================
Total params: 2,043
Trainable params: 2,043
Non-trainable params: 0
_________________________________________________________________
_________________________________________________________________
Layer (type)                 Output Shape              Param #   
=================================================================
dense_5 (Dense)              (None, 30)                90        
_________________________________________________________________
leaky_re_lu_4 (LeakyReLU)    (None, 30)                0         
_________________________________________________________________
dense_6 (Dense)              (None, 30)                930       
_________________________________________________________________
leaky_re_lu_5 (LeakyReLU)    (None, 30)                0         
_________________________________________________________________
dense_7 (Dense)              (None, 30)                930       
_________________________________________________________________
leaky_re_lu_6 (LeakyReLU)    (None, 30)                0         
_________________________________________________________________
dense_8 (Dense)              (None, 3)                 93        
_________________________________________________________________
activation_2 (Activation)    (None, 3)                 0         
=================================================================
Total params: 2,043
Trainable params: 2,043
Non-trainable params: 0
_________________________________________________________________
Train::Start
[33mWARN: gym.spaces.Box autodetected dtype as <type 'numpy.float32'>. Please provide explicit dtype.[0m
Burn_in_memory::Start
[33mWARN: gym.spaces.Box autodetected dtype as <type 'numpy.float32'>. Please provide explicit dtype.[0m
…
